…
Total Training Time in seconds: 3853.878347211
Data set size:1778
Fold number:4
Fold number:4
Number of validation images:133
Number of training images:1201
Mini batch size:16
Type of initialization:xavier_uniform_
Test accuracy:[0.995485246181488]
Learning rate:0.001
Model version:DualNorm_Unet
Optimizer type:Adam
Total number of epochs:100
Training loss function:BCEWithLogitsLoss
Validation loss function:BCEWithLogitsLoss
Accuracy function:Jaccard
Channel index:RGBs
Transfer:notr
Model Summary:
DualNorm_Unet(
  (inc): InConv(
    (nonlinear_layer): ReLU(inplace=True)
    (conv): Sequential(
      (0): Conv2d(3, 32, kernel_size=(1, 1), stride=(1, 1))
    )
    (block): ResBlock(
      (nonlinear_layer): ReLU(inplace=True)
      (norm_0): BatchNorm2d(32, eps=1e-05, momentum=0.1, affine=True, track_running_stats=True)
      (norm_1): BatchNorm2d(32, eps=1e-05, momentum=0.1, affine=True, track_running_stats=True)
      (conv_0): Conv2d(32, 32, kernel_size=(3, 3), stride=(1, 1), padding=(1, 1))
      (conv_1): Conv2d(32, 32, kernel_size=(3, 3), stride=(1, 1), padding=(1, 1))
    )
  )
  (down1): Down(
    (nonlinear_layer): ReLU(inplace=True)
    (maxpool_conv): Sequential(
      (0): MaxPool2d(kernel_size=2, stride=2, padding=0, dilation=1, ceil_mode=False)
      (1): Conv2d(32, 64, kernel_size=(2, 2), stride=(1, 1), padding=(1, 1))
    )
    (block): ResBlock(
      (nonlinear_layer): ReLU(inplace=True)
      (norm_0): BatchNorm2d(64, eps=1e-05, momentum=0.1, affine=True, track_running_stats=True)
      (norm_1): BatchNorm2d(64, eps=1e-05, momentum=0.1, affine=True, track_running_stats=True)
      (conv_0): Conv2d(64, 64, kernel_size=(3, 3), stride=(1, 1), padding=(1, 1))
      (conv_1): Conv2d(64, 64, kernel_size=(3, 3), stride=(1, 1), padding=(1, 1))
    )
  )
  (down2): Down(
    (nonlinear_layer): ReLU(inplace=True)
    (maxpool_conv): Sequential(
      (0): MaxPool2d(kernel_size=2, stride=2, padding=0, dilation=1, ceil_mode=False)
      (1): Conv2d(64, 128, kernel_size=(2, 2), stride=(1, 1), padding=(1, 1))
    )
    (block): ResBlock(
      (nonlinear_layer): ReLU(inplace=True)
      (norm_0): BatchNorm2d(128, eps=1e-05, momentum=0.1, affine=True, track_running_stats=True)
      (norm_1): BatchNorm2d(128, eps=1e-05, momentum=0.1, affine=True, track_running_stats=True)
      (conv_0): Conv2d(128, 128, kernel_size=(3, 3), stride=(1, 1), padding=(1, 1))
      (conv_1): Conv2d(128, 128, kernel_size=(3, 3), stride=(1, 1), padding=(1, 1))
    )
  )
  (down3): Down(
    (nonlinear_layer): ReLU(inplace=True)
    (maxpool_conv): Sequential(
      (0): MaxPool2d(kernel_size=2, stride=2, padding=0, dilation=1, ceil_mode=False)
      (1): Conv2d(128, 256, kernel_size=(2, 2), stride=(1, 1), padding=(1, 1))
    )
    (block): ResBlock(
      (nonlinear_layer): ReLU(inplace=True)
      (norm_0): BatchNorm2d(256, eps=1e-05, momentum=0.1, affine=True, track_running_stats=True)
      (norm_1): BatchNorm2d(256, eps=1e-05, momentum=0.1, affine=True, track_running_stats=True)
      (conv_0): Conv2d(256, 256, kernel_size=(3, 3), stride=(1, 1), padding=(1, 1))
      (conv_1): Conv2d(256, 256, kernel_size=(3, 3), stride=(1, 1), padding=(1, 1))
    )
  )
  (down4): Down(
    (nonlinear_layer): ReLU(inplace=True)
    (maxpool_conv): Sequential(
      (0): MaxPool2d(kernel_size=2, stride=2, padding=0, dilation=1, ceil_mode=False)
      (1): Conv2d(256, 512, kernel_size=(2, 2), stride=(1, 1), padding=(1, 1))
    )
    (block): ResBlock(
      (nonlinear_layer): ReLU(inplace=True)
      (norm_0): BatchNorm2d(512, eps=1e-05, momentum=0.1, affine=True, track_running_stats=True)
      (norm_1): BatchNorm2d(512, eps=1e-05, momentum=0.1, affine=True, track_running_stats=True)
      (conv_0): Conv2d(512, 512, kernel_size=(3, 3), stride=(1, 1), padding=(1, 1))
      (conv_1): Conv2d(512, 512, kernel_size=(3, 3), stride=(1, 1), padding=(1, 1))
    )
  )
  (mid): Mid(
    (block): ResBlock(
      (nonlinear_layer): ReLU(inplace=True)
      (norm_0): BatchNorm2d(512, eps=1e-05, momentum=0.1, affine=True, track_running_stats=True)
      (norm_1): BatchNorm2d(512, eps=1e-05, momentum=0.1, affine=True, track_running_stats=True)
      (conv_0): Conv2d(512, 512, kernel_size=(3, 3), stride=(1, 1), padding=(1, 1))
      (conv_1): Conv2d(512, 512, kernel_size=(3, 3), stride=(1, 1), padding=(1, 1))
    )
  )
  (up1): Up(
    (nonlinear_layer): ReLU(inplace=True)
    (up): TransConv(
      (nonlinear_layer): ReLU(inplace=True)
      (up): Sequential(
        (0): BatchNorm2d(512, eps=1e-05, momentum=0.1, affine=True, track_running_stats=True)
        (1): ReLU(inplace=True)
        (2): ConvTranspose2d(512, 256, kernel_size=(3, 3), stride=(2, 2), padding=(1, 1), output_padding=(1, 1))
      )
    )
    (conv): Sequential(
      (0): Conv2d(512, 256, kernel_size=(3, 3), stride=(1, 1), padding=(1, 1))
    )
    (block): ResBlock(
      (nonlinear_layer): ReLU(inplace=True)
      (norm_0): BatchNorm2d(256, eps=1e-05, momentum=0.1, affine=True, track_running_stats=True)
      (norm_1): BatchNorm2d(256, eps=1e-05, momentum=0.1, affine=True, track_running_stats=True)
      (conv_0): Conv2d(256, 256, kernel_size=(3, 3), stride=(1, 1), padding=(1, 1))
      (conv_1): Conv2d(256, 256, kernel_size=(3, 3), stride=(1, 1), padding=(1, 1))
    )
  )
  (up2): Up(
    (nonlinear_layer): ReLU(inplace=True)
    (up): TransConv(
      (nonlinear_layer): ReLU(inplace=True)
      (up): Sequential(
        (0): BatchNorm2d(256, eps=1e-05, momentum=0.1, affine=True, track_running_stats=True)
        (1): ReLU(inplace=True)
        (2): ConvTranspose2d(256, 128, kernel_size=(3, 3), stride=(2, 2), padding=(1, 1), output_padding=(1, 1))
      )
    )
    (conv): Sequential(
      (0): Conv2d(256, 128, kernel_size=(3, 3), stride=(1, 1), padding=(1, 1))
    )
    (block): ResBlock(
      (nonlinear_layer): ReLU(inplace=True)
      (norm_0): BatchNorm2d(128, eps=1e-05, momentum=0.1, affine=True, track_running_stats=True)
      (norm_1): BatchNorm2d(128, eps=1e-05, momentum=0.1, affine=True, track_running_stats=True)
      (conv_0): Conv2d(128, 128, kernel_size=(3, 3), stride=(1, 1), padding=(1, 1))
      (conv_1): Conv2d(128, 128, kernel_size=(3, 3), stride=(1, 1), padding=(1, 1))
    )
  )
  (up3): Up(
    (nonlinear_layer): ReLU(inplace=True)
    (up): TransConv(
      (nonlinear_layer): ReLU(inplace=True)
      (up): Sequential(
        (0): BatchNorm2d(128, eps=1e-05, momentum=0.1, affine=True, track_running_stats=True)
        (1): ReLU(inplace=True)
        (2): ConvTranspose2d(128, 64, kernel_size=(3, 3), stride=(2, 2), padding=(1, 1), output_padding=(1, 1))
      )
    )
    (conv): Sequential(
      (0): Conv2d(128, 64, kernel_size=(3, 3), stride=(1, 1), padding=(1, 1))
    )
    (block): ResBlock(
      (nonlinear_layer): ReLU(inplace=True)
      (norm_0): BatchNorm2d(64, eps=1e-05, momentum=0.1, affine=True, track_running_stats=True)
      (norm_1): BatchNorm2d(64, eps=1e-05, momentum=0.1, affine=True, track_running_stats=True)
      (conv_0): Conv2d(64, 64, kernel_size=(3, 3), stride=(1, 1), padding=(1, 1))
      (conv_1): Conv2d(64, 64, kernel_size=(3, 3), stride=(1, 1), padding=(1, 1))
    )
  )
  (up4): Up(
    (nonlinear_layer): ReLU(inplace=True)
    (up): TransConv(
      (nonlinear_layer): ReLU(inplace=True)
      (up): Sequential(
        (0): BatchNorm2d(64, eps=1e-05, momentum=0.1, affine=True, track_running_stats=True)
        (1): ReLU(inplace=True)
        (2): ConvTranspose2d(64, 32, kernel_size=(3, 3), stride=(2, 2), padding=(1, 1), output_padding=(1, 1))
      )
    )
    (conv): Sequential(
      (0): Conv2d(64, 32, kernel_size=(3, 3), stride=(1, 1), padding=(1, 1))
    )
    (block): ResBlock(
      (nonlinear_layer): ReLU(inplace=True)
      (norm_0): BatchNorm2d(32, eps=1e-05, momentum=0.1, affine=True, track_running_stats=True)
      (norm_1): BatchNorm2d(32, eps=1e-05, momentum=0.1, affine=True, track_running_stats=True)
      (conv_0): Conv2d(32, 32, kernel_size=(3, 3), stride=(1, 1), padding=(1, 1))
      (conv_1): Conv2d(32, 32, kernel_size=(3, 3), stride=(1, 1), padding=(1, 1))
    )
  )
  (outc): OutConv(
    (nonlinear_layer): ReLU(inplace=True)
    (conv): Sequential(
      (0): BatchNorm2d(32, eps=1e-05, momentum=0.1, affine=True, track_running_stats=True)
      (1): ReLU(inplace=True)
      (2): Conv2d(32, 1, kernel_size=(1, 1), stride=(1, 1))
    )
  )
  (outsig): Sigmoid()
)
Epoch: 0 LR: [0.001]
{'step_size': 10, 'gamma': 0.9, 'base_lrs': [0.001], 'last_epoch': 1, 'verbose': False, '_step_count': 2, '_get_lr_called_within_step': False, '_last_lr': [0.001]}
Training loss:0.4417680741140717
Training accuracy:0.6192628145217896
Validation loss:0.40071942077742684
Validation accuracy:0.7367534637451172
…
